{"backend": "tensorflow", "config": [{"config": {"batch_input_shape": [null, 3, 256, 256], "data_format": "channels_first", "padding": [[1, 1], [1, 1]], "name": "zero_padding2d_1", "dtype": "float32", "trainable": true}, "class_name": "ZeroPadding2D"}, {"config": {"dilation_rate": [1, 1], "bias_constraint": null, "activation": "relu", "batch_input_shape": [null, 3, 256, 256], "kernel_initializer": {"config": {"scale": 1.0, "mode": "fan_avg", "distribution": "uniform", "seed": null}, "class_name": "VarianceScaling"}, "kernel_size": [3, 3], "padding": "valid", "dtype": "float32", "trainable": true, "filters": 8, "kernel_regularizer": null, "bias_initializer": {"config": {}, "class_name": "Zeros"}, "kernel_constraint": null, "data_format": "channels_first", "use_bias": true, "activity_regularizer": null, "name": "conv2d_1", "bias_regularizer": null, "strides": [1, 1]}, "class_name": "Conv2D"}, {"config": {"pool_size": [2, 2], "name": "max_pooling2d_1", "data_format": "channels_first", "padding": "valid", "strides": [2, 2], "trainable": true}, "class_name": "MaxPooling2D"}, {"config": {"data_format": "channels_first", "padding": [[1, 1], [1, 1]], "trainable": true, "name": "zero_padding2d_2"}, "class_name": "ZeroPadding2D"}, {"config": {"dilation_rate": [1, 1], "bias_constraint": null, "activation": "relu", "kernel_size": [3, 3], "padding": "valid", "kernel_regularizer": null, "trainable": true, "filters": 8, "kernel_initializer": {"config": {"scale": 1.0, "mode": "fan_avg", "distribution": "uniform", "seed": null}, "class_name": "VarianceScaling"}, "bias_initializer": {"config": {}, "class_name": "Zeros"}, "kernel_constraint": null, "data_format": "channels_first", "use_bias": true, "activity_regularizer": null, "name": "conv2d_2", "bias_regularizer": null, "strides": [1, 1]}, "class_name": "Conv2D"}, {"config": {"pool_size": [2, 2], "name": "max_pooling2d_2", "data_format": "channels_first", "padding": "valid", "strides": [2, 2], "trainable": true}, "class_name": "MaxPooling2D"}, {"config": {"data_format": "channels_first", "padding": [[1, 1], [1, 1]], "trainable": true, "name": "zero_padding2d_3"}, "class_name": "ZeroPadding2D"}, {"config": {"dilation_rate": [1, 1], "bias_constraint": null, "activation": "relu", "kernel_size": [3, 3], "padding": "valid", "kernel_regularizer": null, "trainable": true, "filters": 12, "kernel_initializer": {"config": {"scale": 1.0, "mode": "fan_avg", "distribution": "uniform", "seed": null}, "class_name": "VarianceScaling"}, "bias_initializer": {"config": {}, "class_name": "Zeros"}, "kernel_constraint": null, "data_format": "channels_first", "use_bias": true, "activity_regularizer": null, "name": "conv2d_3", "bias_regularizer": null, "strides": [1, 1]}, "class_name": "Conv2D"}, {"config": {"pool_size": [2, 2], "name": "max_pooling2d_3", "data_format": "channels_first", "padding": "valid", "strides": [2, 2], "trainable": true}, "class_name": "MaxPooling2D"}, {"config": {"data_format": "channels_first", "padding": [[1, 1], [1, 1]], "trainable": true, "name": "zero_padding2d_4"}, "class_name": "ZeroPadding2D"}, {"config": {"dilation_rate": [1, 1], "bias_constraint": null, "activation": "relu", "kernel_size": [3, 3], "padding": "valid", "kernel_regularizer": null, "trainable": true, "filters": 16, "kernel_initializer": {"config": {"scale": 1.0, "mode": "fan_avg", "distribution": "uniform", "seed": null}, "class_name": "VarianceScaling"}, "bias_initializer": {"config": {}, "class_name": "Zeros"}, "kernel_constraint": null, "data_format": "channels_first", "use_bias": true, "activity_regularizer": null, "name": "conv2d_4", "bias_regularizer": null, "strides": [1, 1]}, "class_name": "Conv2D"}, {"config": {"pool_size": [2, 2], "name": "max_pooling2d_4", "data_format": "channels_first", "padding": "valid", "strides": [2, 2], "trainable": true}, "class_name": "MaxPooling2D"}, {"config": {"data_format": "channels_first", "padding": [[1, 1], [1, 1]], "trainable": true, "name": "zero_padding2d_5"}, "class_name": "ZeroPadding2D"}, {"config": {"dilation_rate": [1, 1], "bias_constraint": null, "activation": "relu", "kernel_size": [3, 3], "padding": "valid", "kernel_regularizer": null, "trainable": true, "filters": 24, "kernel_initializer": {"config": {"scale": 1.0, "mode": "fan_avg", "distribution": "uniform", "seed": null}, "class_name": "VarianceScaling"}, "bias_initializer": {"config": {}, "class_name": "Zeros"}, "kernel_constraint": null, "data_format": "channels_first", "use_bias": true, "activity_regularizer": null, "name": "conv2d_5", "bias_regularizer": null, "strides": [1, 1]}, "class_name": "Conv2D"}, {"config": {"pool_size": [2, 2], "name": "max_pooling2d_5", "data_format": "channels_first", "padding": "valid", "strides": [2, 2], "trainable": true}, "class_name": "MaxPooling2D"}, {"config": {"data_format": "channels_first", "padding": [[1, 1], [1, 1]], "trainable": true, "name": "zero_padding2d_6"}, "class_name": "ZeroPadding2D"}, {"config": {"dilation_rate": [1, 1], "bias_constraint": null, "activation": "relu", "kernel_size": [3, 3], "padding": "valid", "kernel_regularizer": null, "trainable": true, "filters": 32, "kernel_initializer": {"config": {"scale": 1.0, "mode": "fan_avg", "distribution": "uniform", "seed": null}, "class_name": "VarianceScaling"}, "bias_initializer": {"config": {}, "class_name": "Zeros"}, "kernel_constraint": null, "data_format": "channels_first", "use_bias": true, "activity_regularizer": null, "name": "conv2d_6", "bias_regularizer": null, "strides": [1, 1]}, "class_name": "Conv2D"}, {"config": {"pool_size": [2, 2], "name": "max_pooling2d_6", "data_format": "channels_first", "padding": "valid", "strides": [2, 2], "trainable": true}, "class_name": "MaxPooling2D"}, {"config": {"rate": 0.2, "trainable": true, "name": "dropout_1"}, "class_name": "Dropout"}, {"config": {"trainable": true, "target_shape": [-1, 16], "name": "reshape_1"}, "class_name": "Reshape"}, {"config": {"activation": "tanh", "batch_input_shape": [null, 32, 16], "stateful": false, "unroll": false, "unit_forget_bias": true, "trainable": true, "return_sequences": true, "use_bias": true, "kernel_regularizer": null, "bias_initializer": {"config": {}, "class_name": "Zeros"}, "kernel_constraint": null, "name": "lstm_1", "bias_regularizer": null, "dropout": 0.2, "implementation": 0, "bias_constraint": null, "recurrent_constraint": null, "activity_regularizer": null, "dtype": "float32", "go_backwards": false, "units": 32, "recurrent_dropout": 0.2, "recurrent_regularizer": null, "recurrent_initializer": {"config": {"gain": 1.0, "seed": null}, "class_name": "Orthogonal"}, "recurrent_activation": "hard_sigmoid", "kernel_initializer": {"config": {"scale": 1.0, "mode": "fan_avg", "distribution": "uniform", "seed": null}, "class_name": "VarianceScaling"}}, "class_name": "LSTM"}, {"config": {"activation": "tanh", "recurrent_constraint": null, "stateful": false, "unroll": false, "unit_forget_bias": true, "name": "lstm_2", "return_sequences": true, "use_bias": true, "kernel_regularizer": null, "bias_initializer": {"config": {}, "class_name": "Zeros"}, "kernel_constraint": null, "trainable": true, "bias_regularizer": null, "dropout": 0.2, "implementation": 0, "bias_constraint": null, "activity_regularizer": null, "recurrent_activation": "hard_sigmoid", "go_backwards": false, "units": 16, "recurrent_dropout": 0.2, "recurrent_regularizer": null, "recurrent_initializer": {"config": {"gain": 1.0, "seed": null}, "class_name": "Orthogonal"}, "kernel_initializer": {"config": {"scale": 1.0, "mode": "fan_avg", "distribution": "uniform", "seed": null}, "class_name": "VarianceScaling"}}, "class_name": "LSTM"}, {"config": {"activation": "sigmoid", "recurrent_constraint": null, "stateful": false, "unroll": false, "unit_forget_bias": true, "name": "lstm_3", "return_sequences": false, "use_bias": true, "kernel_regularizer": null, "bias_initializer": {"config": {}, "class_name": "Zeros"}, "kernel_constraint": null, "trainable": true, "bias_regularizer": null, "dropout": 0.2, "implementation": 0, "bias_constraint": null, "activity_regularizer": null, "recurrent_activation": "hard_sigmoid", "go_backwards": false, "units": 3, "recurrent_dropout": 0.2, "recurrent_regularizer": null, "recurrent_initializer": {"config": {"gain": 1.0, "seed": null}, "class_name": "Orthogonal"}, "kernel_initializer": {"config": {"scale": 1.0, "mode": "fan_avg", "distribution": "uniform", "seed": null}, "class_name": "VarianceScaling"}}, "class_name": "LSTM"}], "class_name": "Sequential", "keras_version": "2.0.4"}